players/model.npz (npz, 4782 bytes, 6 tensors)

W1 f8 [16, 6]
0	0x3f74894c149283b2	0.005013749302777025
1	0xbf8aecf8b991f24b	-0.013147299922132613
2	0xbf8342653bcb6537	-0.009403983008655288
3	0x3f778bba9dc9e9c3	0.005748490305104106
4	0x3f7c01f2b519e1d5	0.006837795329936521
5	0xbf8b4c45e747ae31	-0.013329073067288895
6	0x3fd04a3d321f3311	0.25453119177545697
7	0x3fd5cb6b8c8b262e	0.34054077839809593
8	0xbfe142d6ab18b827	-0.5394090024690329
9	0x3fc5e2454bed1791	0.1709677334530935
10	0x3fc4887191aef4b6	0.16041392911384883
11	0x3fdd201623f25369	0.45508340368660655
12	0x3f7071d69061f181	0.004014814510921006
13	0xbf7cca02e94c3d9b	-0.007028590557424687
14	0xbf88d959c49da353	-0.012133313477265572
15	0xbf9158d5fe38135d	-0.016940444604205285
16	0xbf85fc5f8e80945c	-0.010735270057987183
17	0x3f7424e014705800	0.004917979537841788
18	0xbfdd53feeb87b284	-0.45825169564231083
19	0xbfd2ece2b41f0251	-0.29570834722475065
20	0xbff4bf2382f665fe	-1.2966647258493817
21	0x3fe7cd7da70487e5	0.7438343298019815
22	0x3f90735123af3a7c	0.016064899256714046
23	0xbffd13f568b4dc62	-1.8173727121445826
24	0x3f6b5deca2c756ea	0.003340685061838812
25	0xbf5560285f2b460a	-0.001304664063969676
26	0xbf7ccc218fa8e690	-0.007030612085651491
27	0xbf8aab83cb1baf33	-0.013022451053494066
28	0xbf7f650f94ef58a9	-0.007664738527600226
29	0xbf5f51fcae6a3503	-0.0019116370764636354
30	0x3fa49dee0a516b3b	0.040267409095312755
31	0x3fa7b40521644ee5	0.04629531891455744
32	0x3f989f6cf1f9717d	0.024045660275406434
33	0xbf964b6afa3e0369	-0.021772071384023848
34	0xbf92ecd08ca09be3	-0.01848150118180659
35	0x3f904b1cbb730590	0.015911530438420807
36	0xbfd082ea02f3b87b	-0.2579903630093054
37	0x3fbdd84138b6914b	0.11658103594397067
38	0x3ff05bfd719b9d52	1.022458499699344
39	0xbfc0d6a5b6f84235	-0.13155051645345997
40	0x3fcb6bfe25d9526a	0.21423317764369482
41	0xbfe004d823ac2b15	-0.5005913445214413
42	0xbfded17526812c3f	-0.48153427849019076
43	0xbfde9ca5c88ff93c	-0.4783110102288395
44	0x3fb75345e2f282e6	0.09111439505296523
45	0x3fe240560278fe2f	0.570353512601235
46	0x3fd5806df273e875	0.3359637134268561
47	0xbfbb577974ac55fa	-0.10680350397554852
48	0xbf705e8882704255	-0.00399640392335295
49	0xbf82df3ee2241ffe	-0.009214869762686814
50	0xbf74e81364b1b4c8	-0.00510413718721487
51	0xbf7f65809860842d	-0.007665159535492666
52	0x3f825ee06f42f731	0.008970025439676373
53	0xbf8fea9b1ed45868	-0.015584194067326432
54	0xbfc196db3674d8e6	-0.13741626891141506
55	0xbf5f40de8ea2f9d6	-0.0019075559053330824
56	0xbfdac18c983222e0	-0.4180633055007501
57	0x3f725b34f3e5eb22	0.004481512877073242
58	0x3fdc82b083c6283b	0.44547665470657066
59	0x3fcd1fd4edb2b318	0.2275339279780375
60	0x3fd6034b814b6b00	0.3439511072771637
61	0xbfcff5818e3ec7a1	-0.24967975087707564
62	0x3ff11f379561571b	1.070121367947144
63	0xbfd003c006dc12a2	-0.2502288882244931
64	0x3fa02f45c21e3497	0.031610660501521774
65	0xbfe3722114b7a9f1	-0.607681789840454
66	0xbf4ab1a64337fea6	-0.0008146344975443378
67	0x3f820fd3014f5591	0.008819244840121228
68	0x3f6a5954dcc17d84	0.0032164247004826136
69	0xbf78cd2fdc611303	-0.006055056530446692
70	0xbf91c8cef012bcc7	-0.017367585566429946
71	0xbf95d74e9ecf6fcf	-0.021329143946658576
72	0xbfd70aaa51a99296	-0.36002595877497734
73	0xbfd6ba0f80e1d6d8	-0.3551062353720744
74	0x3f96d5f8a7593fe5	0.02230061074652658
75	0x3fd9f5752b610873	0.4056065486548796
76	0x3fd27443f451f0e4	0.28834627971060756
77	0xbfa608648a75d6a0	-0.04303278150738987
78	0xbfea7bdeb1ea9433	-0.8276208376815987
79	0xbfebca89eaf83f07	-0.8684739674808676
80	0xbfcc6cdc42949d16	-0.22207215548517273
81	0x3febc15d8f55cb96	0.8673541831507119
82	0x3fef75b441c61c8d	0.9831181797643623
83	0x3facbae20d82ded6	0.056113304280584295
84	0x3fd33e5e71b833c1	0.30068169694351005
85	0x3fe1399565944fce	0.5382792457553423
86	0x400e5a6773dbb473	3.794142632620202
87	0xbf981ac6563382d2	-0.02353963757639372
88	0xbf975ee82654c39c	-0.022822978343529962
89	0xc00774f1e348169f	-2.932101989400351
90	0x3f9550f9efaad1dd	0.020816712620858147
91	0x3fcce3ea168dd97d	0.22570539571070106
92	0xbff497eb6eca9bb9	-1.287089760569627
93	0x3f6b158b5074356b	0.0033061715108774667
94	0x3fe35baf730cd68c	0.604942059237787
95	0xbff6ccbf6c6c552d	-1.4249872432022344

b1 f8 [16, 1]
0	0xbf700dde084d2712	-0.00391947490136048
1	0x3fc637403168dd18	0.1735611191995552
2	0x0000000000000000	0.0
3	0x3ff3b8e8c1db5377	1.2326438496140477
4	0x0000000000000000	0.0
5	0xbf6275fa74afea76	-0.002253522082807986
6	0xbfb47d50434b92ed	-0.08003713267278174
7	0x3fe1ca8fbeba8a04	0.5559767460984522
8	0x0000000000000000	0.0
9	0x3fc01d69a5f174ae	0.12589760401434574
10	0x3fb27baf302b3234	0.07219977308268072
11	0xbf6a41e95e1bb8c5	-0.0032052572213308894
12	0x3fdb23653a3c97f1	0.42403536498238653
13	0x3ff1060104dd8a21	1.0639658155493026
14	0x3fe1d02c0761ea13	0.5566616195858977
15	0x3feb08d4739d848e	0.844827867327824

W2 f8 [16, 16]
0	0x3f893dab68a03245	0.012324656610894222
1	0xbfc4d098feb21ff8	-0.16261589466398596
2	0xbf93d545f9a1890f	-0.019368260728136962
3	0xbfc3e2f99dbce6b0	-0.1553642292217794
4	0x3f85cdc5eab89a48	0.010646387315387376
5	0xbf8ed3e0a662c6f8	-0.015052561834042674
6	0x3fbd9e1dfac0683e	0.11569392558922773
7	0x3fd46c0610d79c93	0.3190932430720263
8	0xbf8af075fc7d1447	-0.013153955238189975
9	0x3fcd799f0a7a8e0c	0.23027408610970246
10	0xbfc301654b4e685e	-0.14848009278358892
11	0xbf81738e6081f47c	-0.0085211871339601
12	0x3fcf50ac76dbf2d1	0.24464946559591863
13	0x3fe2850510271bd5	0.5787377658351668
14	0x3f980411e1f03d36	0.02345302526015055
15	0xbfcb502f038809c2	-0.21338451073104464
16	0x3f7f6011b35e6e70	0.007659978049470703
17	0xbfa3616f1f9f6404	-0.03785273800867375
18	0x3f849d2e074f4c7f	0.010065421674801065
19	0x3fa6cf6a7c68ee3d	0.04455120819735867
20	0xbf82d784457e6418	-0.009200127955226775
21	0xbf8e02d75a455d49	-0.014653856699324523
22	0x3f9159f923fc3047	0.01694478304038707
23	0x3f917eae92a12e57	0.017084815692483293
24	0xbf81a9d7bbc205d3	-0.00862473050824778
25	0x3f7cc270bca9c69e	0.007021370295306943
26	0xbf71dd1475ce7e70	-0.004361228869043651
27	0x3f6c229007654caa	0.003434449488091203
28	0xbf515cb4ac83f997	-0.0010597004311986063
29	0xbf67716353496bec	-0.0028616847942379755
30	0x3fa89809b536be2d	0.04803495728571892
31	0x3fb0a7e4b52a7641	0.06506184981341169
32	0x3f70a80db4d55b49	0.004066518345402789
33	0x3fc50b8275d7b6c9	0.1644137454417687
34	0x3f725d6fb6202b04	0.004483639118926023
35	0xbfd63f8a5361f399	-0.3476281942637854
36	0x3f87fd130c7d0fca	0.011713169878596736
37	0xbf6dcc3d00b1c3b2	-0.0036374274691799097
38	0xbfb4027dfa2f2877	-0.07816302640927285
39	0x3fbc9eea190dbf7a	0.11179984199202223
40	0x3f91ddd57fb59f97	0.01744779197670673
41	0x3fb3a3e929caa07d	0.07671983022976465
42	0xbfc68bbd878abf10	-0.176139537031752
43	0xbf49eff46a4c42f2	-0.0007915442880364872
44	0x3fbb460b79848c34	0.10653754917852681
45	0x3fd4479ca103f2fe	0.3168708393493914
46	0xbfd69c2d014a312d	-0.3532822144122914
47	0xbfd92ae68765befa	-0.39324343893439073
48	0x3f619ecdb3f37490	0.0021509187350675155
49	0xbfc2d28cf4f59516	-0.14705049477485294
50	0x3f93fca42cfb7c22	0.019518437619691416
51	0xbfcf77f17558587d	-0.24584787587872717
52	0xbf8a6c27e3b5ccae	-0.012901603352224757
53	0xbfa6c4d5ccb8f1af	-0.04447048305562206
54	0x3fb28d98c5526c28	0.07247309510641797
55	0x3fd6888455260394	0.3520823318031543
56	0x3f75c58adcd38f38	0.0053153442688403316
57	0x3fcd32eea8c43444	0.22811682930515265
58	0xbfc4fc53c02d44fa	-0.1639504135478445
59	0x3f719c58b8e46390	0.0042994943344404485
60	0x3fd14da570402d33	0.2703641506384031
61	0x3fe433f368886eb8	0.6313416520747159
62	0x3f8da1601b06c36c	0.014467955422192445
63	0xbfcf65df2be79942	-0.2452963795069057
64	0xbf9780098beb1b37	-0.022949361004772597
65	0x3f5664dad2fb087e	0.0013668190912743679
66	0xbf6f0ec8e10a5593	-0.003791229574128871
67	0x3f964b6de6dfb03f	0.021772114960114882
68	0x3f76fba85b7f2f0c	0.005611093183641957
69	0xbf8da2d75d44b3b0	-0.014470751317810698
70	0x3f89a037edb5321e	0.012512623731390223
71	0x3f692258d89f93a7	0.0030681357647943277
72	0xbf8eb78cbe95467c	-0.014998530927786684
73	0x3f5a352c42741fee	0.0015995914671424988
74	0xbf829923b2dcdcad	-0.00908115281673213
75	0x3f7925e04c54eccd	0.006139637150506872
76	0xbf622d436ec63942	-0.002218848900333332
77	0xbf12b5ee839779ab	-7.137554430112238e-05
78	0x3f7545d6fd6d03ec	0.005193557552787258
79	0x3f6e73cb51f34d28	0.0037173243614262615
80	0x3f76644d8cc3405a	0.005466750077360494
81	0xbf6b90b93ed897d3	-0.003364908034899175
82	0xbf8665f99268c918	-0.010936689167554678
83	0xbf4c1e005b5c5e0e	-0.000858068632370869
84	0xbf4a0fcac198ac44	-0.0007953395863230591
85	0x3f7f1707291cd19f	0.007590320559576118
86	0xbf77156243e6f873	-0.005635627602201254
87	0x3f679ea9b9d8a510	0.0028832735977358873
88	0x3f82b5968a608d52	0.0091354142169339
89	0x3f8201d7919a4d7c	0.00879257596105875
90	0x3f7705cb256d440e	0.005620759525144526
91	0x3f7b321ce6fcdfc0	0.006639588260263396
92	0xbf7f287689f043f1	-0.007606947939181361
93	0x3f8a3561c29eb3d5	0.012797130348042455
94	0xbf90ad0497859859	-0.01628501105133071
95	0x3f85d49e1941f08f	0.0106594420869828
96	0x3f7e309c1eff9cd1	0.007370576713561409
97	0xbf81a551b230470f	-0.00861610245741276
98	0xbf73eb215a648695	-0.004862909589321914
99	0x3f3a8dd874bb8e73	0.00040518316812507906
100	0xbf93c8e2cbde7f88	-0.0193210064823002
101	0x3f6dfe7077784194	0.0036613651861971495
102	0xbf5ac734aaa4e457	-0.0016344084093147437
103	0x3f949dfeab7b445e	0.020133952347184063
104	0x3f50bfb4a8c88cfb	0.0010222687007022657
105	0xbf7720f0d0b7ffab	-0.005646649060054114
106	0xbf633791c8e6eba9	-0.00234583352650249
107	0x3f7a506cd74759d8	0.00642435565938234
108	0xbf82761a40d30d55	-0.009014325240406388
109	0xbf722e2dddf5b84f	-0.004438571136558946
110	0x3f50d0ce53512d7d	0.0010263457200093411
111	0x3f8459d071ade557	0.009936932057586985
112	0xbf7efe0e7426b4bb	-0.007566505870653713
113	0xbfcf8ed0b70c2499	-0.24654587686408005
114	0xbf4669fb874fd472	-0.0006840208212667411
115	0x3fd07bd8e49fbed8	0.25755903555453363
116	0x3f4c38b559418a8a	0.0008612523547636014
117	0xbfa357403b624a28	-0.03777504658605252
118	0x3fd013176aa571d2	0.25116525091814623
119	0x3fdeb659779ddbb4	0.47987972909271126
120	0xbf7f9d3882f0e553	-0.0077182967643748155
121	0x3fd44a38c0f627a9	0.3170301327123704
122	0xbfca0b62d468a179	-0.20347247478026612
123	0xbf4a702e0ffe77f6	-0.0008068299211918528
124	0x3fd6499b06738bbd	0.34824252729429955
125	0x3fe6ec57ebab167a	0.7163505175492013
126	0x3fc039b5cb509e1f	0.12676117351041769
127	0x3f48fcd07bc18a46	0.0007625596986254389
128	0x3f6b27ef8c9eaf01	0.0033149412820047135
129	0xbfc80a5d14023462	-0.18781627156241415
130	0x3f611bbf8815a9c1	0.0020884266711409254
131	0x3fe65fc41f3ce1f2	0.6991901979554866
132	0xbf5d248dcea1ffdf	-0.0017787346683064626
133	0x3f5f869316df9523	0.001924174920980911
134	0x3fc65bae13b8203a	0.17467285120824433
135	0xbfa404e58a53eea2	-0.03909985841343412
136	0xbf6e43cb810086be	-0.003694436520178395
137	0xbfa62bb37d071a5d	-0.04330216313569644
138	0x3fc336f0f309b23e	0.1501141726215724
139	0xbf67fa026ef92680	-0.0029268310097776973
140	0xbfa06838273e5e32	-0.03204513052986292
141	0xbfc661c9e93bfdb5	-0.17485927475352772
142	0x3fe2a6abc3a86143	0.5828455754699821
143	0x3fe1c7b93c66fdf3	0.5556303195698419
144	0x3f4eb6d5bfd2d8a3	0.0009373229692275674
145	0xbfcfa6e2d9c96482	-0.24728046068301884
146	0x3f937da51df77003	0.01903398509408306
147	0x3fc553977cf43263	0.16661351777328823
148	0xbf8c9a938d28958a	-0.01396670603305485
149	0xbf971dc832d243ed	-0.022574546911133742
150	0x3fcd7746651ec982	0.23020248353493505
151	0x3fdfed89f115f93b	0.49887321990526673
152	0x3f815739b406c1eb	0.008467150503606432
153	0x3fd3c7dcd40a9384	0.3090736456600143
154	0xbfcb8c0b62ed12fc	-0.2152113183057266
155	0x3f82afc14eb4eda5	0.009124288763465336
156	0x3fd580e9f11cdd15	0.3359932760826763
157	0x3fe6dfd865b9bec3	0.7148248659923059
158	0x3fb97095eed26bd0	0.09937417107214164
159	0xbfabd89696566816	-0.054386812068699594
160	0xbf641d83e83aea75	-0.0024554802237990955
161	0xbf70372a8b9592bf	-0.0039588605808133495
162	0x3f8ba48ea07b3c87	0.013497461578849247
163	0xbf789ab9977ff494	-0.006006932228044399
164	0xbf4b164c4f6c2df7	-0.0008266327484717774
165	0xbf668179d93d71d9	-0.0027472858291004263
166	0xbf7f467d0c731efc	-0.007635582419602601
167	0x3f8485cf44105906	0.01002084661926662
168	0xbf25d8c59fea0397	-0.0001666775933309133
169	0x3f824f53a4e024e8	0.008940366238692168
170	0x3f851d186d86cd64	0.010309401361928656
171	0x3f93555c06b4e747	0.0188803080647866
172	0x3f7188bda5f37689	0.004280796826802943
173	0xbf9210d3526a53f7	-0.017642309098466282
174	0xbf608dfd08d6e85b	-0.0020208303528450994
175	0x3f69dd517c945d02	0.0031572906051554614
176	0xbf68158f6fabc8b4	-0.0029399682510922957
177	0xbfac25a6b06ab1bf	-0.05497475532078821
178	0x3f8557d52c1dfd4d	0.010421433838699779
179	0x3fc9af7b9d49857e	0.2006678121570466
180	0x3f8d50ada3245255	0.014314037839121921
181	0xbf773ef6b7c21212	-0.005675281278062732
182	0x3faf75ddb588428c	0.06144612160654103
183	0xbf9e13cecd0e2244	-0.02937243582303696
184	0x3f926151c89b8663	0.01794936930571679
185	0xbf870901310bc8cd	-0.01124764376570333
186	0x3fa806e977da72a0	0.04692773426106567
187	0x3f76026ba5a2c074	0.005373402115012128
188	0xbf8f527388f5008d	-0.015293982140633733
189	0xbfa6c9cb081900f7	-0.044508309114918924
190	0x3fc60d1be8f4cba8	0.172275055645142
191	0x3fc432603a39a5da	0.15778735011126238
192	0x3f8676a3358467b8	0.01096847064086491
193	0x3f7773d43eb12bf8	0.005725697595219785
194	0x3f67abade9f3a397	0.002889480281386313
195	0xbf826e4dee8c6774	-0.008999451486989087
196	0x3f5ce413cb8dd037	0.0017633622466890605
197	0x3f7f684b3e91b258	0.007667821811179275
198	0x3f8541da2f2dd917	0.010379509510795288
199	0xbf72903f131374a3	-0.004532095322443616
200	0xbf6466c047d3c4df	-0.0024904017906171995
201	0xbf53e82a8868faab	-0.0012150206909066579
202	0xbf724fe6a0fc32fb	-0.004470730680407038
203	0x3f89b066716b7a3d	0.012543487869547504
204	0xbf72f59b8669291e	-0.004628760833450122
205	0xbf70d9805ff2043d	-0.0041136755600073545
206	0xbf38ad3e5eba2636	-0.0003765370626998861
207	0x3f812698639e81b0	0.008374395885596936
208	0xbf6e310bbfbf4f9e	-0.0036854962799938848
209	0x3f6a3b92acba933a	0.003202234720293265
210	0xbf8f38a4dac1eda0	-0.015244758535337521
211	0x3f7c06ad8234f9d7	0.0068423059158803845
212	0xbf898cad72e31fce	-0.012475352352694726
213	0xbf72a0e54688c985	-0.004547973258512865
214	0xbf98b65404280915	-0.02413302684181769
215	0xbf9064db8ec3d1e7	-0.0160097413908761
216	0xbf73a7304883d0db	-0.0047981153550049295
217	0x3f7d5e33b8143090	0.0071699161792474625
218	0x3f692ce5a7453f4a	0.0030731664102531574
219	0x3f715784db44525e	0.004233855219599817
220	0xbf8699682f8f5c68	-0.011034788085380678
221	0xbf5253f90206cefb	-0.0011186534612592214
222	0xbf82a6afb29198ac	-0.00910699142168555
223	0xbf5d7e2a0d18edba	-0.0018000994354129122
224	0xbf858f1c1e625ce0	-0.01052686660504637
225	0xbfdd681a2f406bf7	-0.45947889913958256
226	0x3f89e672ea1e673e	0.012646577615487705
227	0x4000ebda06ec104b	2.115161947325793
228	0x3f7d2b10e71fc95b	0.007121149088549518
229	0x3f7566fcd0a79935	0.005225169714753887
230	0x3fe02561fd2a8ddb	0.5045633263256905
231	0xbfc4299d95abc7c6	-0.15752000625758295
232	0x3f83034b5dd77c98	0.00928362732059744
233	0xbfcb5b1c7c491159	-0.21371799534439154
234	0x3fe37a5cc29739ad	0.6086868095970225
235	0xbf83729924a18a14	-0.00949592249907475
236	0xbfc3cbb21bfa0707	-0.15465380064056708
237	0xbfe11b4aff9ee068	-0.5345816605176994
238	0x3ffd4daf074c72df	1.8314657483198784
239	0x3ff8c2b59eeaa7d9	1.5475364883118259
240	0xbf9022fe38436dea	-0.015758487876935158
241	0xbfcecdf901914807	-0.24066078735864968
242	0x3f72fd964b29870f	0.004636370739349762
243	0x3fd53c2f53fbd3ca	0.33179839326413385
244	0x3f743afd9016bdca	0.004939070205565563
245	0xbf9120f6faae7cd4	-0.016727313089742804
246	0x3fc8f9de357b6d6f	0.19512536631996677
247	0x3fc6d6a2900f2e3e	0.178425140706496
248	0xbf83ec610ea41bc1	-0.009728201159772245
249	0x3fc04230847dce98	0.12701994389827997
250	0xbfb26dc8e511fef4	-0.07198768227135216
251	0xbf805857cc1b0d8e	-0.00798100082045641
252	0x3fbaa51bbc0ee976	0.10408185330644479
253	0x3f9f8e4578fcc355	0.03081615973423209
254	0x3fd5a553b286827e	0.3382157557880773
255	0x3fdcc4bdc72b7150	0.4495081372276859

b2 f8 [16, 1]
0	0x3f969a1d56e76881	0.022072275571055847
1	0xbfa1a84d25cec293	-0.03448716246146435
2	0x3fd2d262cbcb8863	0.29409093763218247
3	0x3fafa522ff3973ee	0.06180676808865103
4	0xbf715c333833091a	-0.004238319469722885
5	0xbf82ee94287a8ffb	-0.009244115338624672
6	0xbf77ae23b6126a25	-0.005781306740710456
7	0xbfc494e13bbcd200	-0.16079345147012702
8	0xbfd1f63780e5b6ee	-0.28065288150433687
9	0xbfc299e8a1e8e79d	-0.1453219214034193
10	0xbf3c23c275abb97f	-0.00042937753248297594
11	0xbfb2973d4e129b05	-0.07262023120948065
12	0xbf78925a6dc05237	-0.005998948323413126
13	0xbf69343d7980e445	-0.0030766678501348587
14	0xbfe30df37bf7b0d2	-0.5954530163994838
15	0xbfd8c594c6542092	-0.3870593964388799

W3 f8 [2, 16]
0	0xbfdfe1c4bdcb872b	-0.49815481695815106
1	0x3fb49c94ecc358ac	0.08051424770687515
2	0xbfe7c8b2d8fc7b90	-0.7432493436825656
3	0xbfe486e097265f75	-0.6414645149370545
4	0x3f90db7ed1ff68bb	0.016462308470956737
5	0xbf8348a67b3b3a55	-0.009415913234446164
6	0xbf76e03b8ba18c59	-0.00558493862090178
7	0x3facfe0ebdb8079b	0.056625805529633776
8	0x3ff0796baa53e75b	1.0296436932971662
9	0xbfb42bbd7f79f82c	-0.07879242288797234
10	0x3f458f5ef74995ad	0.0006579602910050019
11	0x3fd32c194c0eeb15	0.29956657817426563
12	0x3f54bd3fe1e8b605	0.00126582373162465
13	0xbf701dfcfa53a8e9	-0.00393484897106531
14	0x4008bed4782cc03b	3.0931786907822505
15	0x3fe057d1950b081d	0.5107200537679578
16	0x3fe21d8b5db89e44	0.5661064939967635
17	0x3fa7aba3b5f002cb	0.04623138042371052
18	0x3fb921c0fa1370ed	0.09817129235620188
19	0x3fe13182740f23c0	0.5372936503200592
20	0x3f77712a4ecd266e	0.0057231571816572634
21	0xbf8a06fd53d83456	-0.012708644028885423
22	0x3f5a15895eda1433	0.0015920487889229506
23	0x3fef301462df5048	0.974619095907209
24	0x3fb218fd1e6f3140	0.07069379799867637
25	0x3feec2a3a02e9d3f	0.9612596634441742
26	0xbf8f875b79ef5d08	-0.015394892367039961
27	0x3f7f4df2af243d24	0.007642696366260613
28	0x3f840097fb51f9bf	0.009766757352051124
29	0x3f8cd028eff5f2ce	0.014068908522625458
30	0xbfc7929f252a2809	-0.18416203798943823
31	0x3fe14f127ca6ad86	0.540902369937087

b3 f8 [2, 1]
0	0xbffd11af6731a196	-1.8168176680575008
1	0xc006ac01f0fe21e3	-2.8339880778842015
